…
1', graphcut_c=0.5, graphcut_k=8, graphcut_min_size=20, lambda_con=0.1, lambda_region=0.1, lr=0.001, nepoch=200, no_jitter=False, npoints=1024, rotation_mode='xyz', save_dir='/data/cjj/projects/pointnet.pytorch/Contrast_exp/experiment', seed=42, step_size=20, temperature=0.07, use_cpu=False, use_graphcut_segmentation=True, use_region_contrast=True, workers=4)
[2025-09-18 11:43:10,977][contrast_train.py][line:240][INFO] model params: 1.909425 M
[2025-09-18 11:43:10,977][contrast_train.py][line:241][INFO] Network Structure: ContrastPointNet(
  (feat): PointNetfeat(
    (stn): STN3d(
      (conv1): Conv1d(3, 64, kernel_size=(1,), stride=(1,))
      (conv2): Conv1d(64, 128, kernel_size=(1,), stride=(1,))
      (conv3): Conv1d(128, 1024, kernel_size=(1,), stride=(1,))
      (bn1): BatchNorm1d(64, eps=1e-05, momentum=0.1, affine=True, track_running_stats=True)
      (bn2): BatchNorm1d(128, eps=1e-05, momentum=0.1, affine=True, track_running_stats=True)
      (bn3): BatchNorm1d(1024, eps=1e-05, momentum=0.1, affine=True, track_running_stats=True)
      (fc1): Linear(in_features=1024, out_features=512, bias=True)
      (fc2): Linear(in_features=512, out_features=256, bias=True)
      (fc3): Linear(in_features=256, out_features=9, bias=True)
      (bn4): BatchNorm1d(512, eps=1e-05, momentum=0.1, affine=True, track_running_stats=True)
      (bn5): BatchNorm1d(256, eps=1e-05, momentum=0.1, affine=True, track_running_stats=True)
    )
    (conv1): Conv1d(3, 64, kernel_size=(1,), stride=(1,))
    (conv2): Conv1d(64, 128, kernel_size=(1,), stride=(1,))
    (conv3): Conv1d(128, 1024, kernel_size=(1,), stride=(1,))
    (bn1): BatchNorm1d(64, eps=1e-05, momentum=0.1, affine=True, track_running_stats=True)
    (bn2): BatchNorm1d(128, eps=1e-05, momentum=0.1, affine=True, track_running_stats=True)
    (bn3): BatchNorm1d(1024, eps=1e-05, momentum=0.1, affine=True, track_running_stats=True)
  )
  (fc1): Linear(in_features=1024, out_features=512, bias=True)
  (fc2): Linear(in_features=512, out_features=256, bias=True)
  (fc3): Linear(in_features=256, out_features=40, bias=True)
  (bn1): BatchNorm1d(512, eps=1e-05, momentum=0.1, affine=True, track_running_stats=True)
  (bn2): BatchNorm1d(256, eps=1e-05, momentum=0.1, affine=True, track_running_stats=True)
  (dropout): Dropout(p=0.3, inplace=False)
  (proj): ProjectionHead(
    (net): Sequential(
      (0): Linear(in_features=1024, out_features=256, bias=True)
      (1): ReLU(inplace=True)
      (2): Linear(in_features=256, out_features=128, bias=True)
    )
  )
)
[2025-09-18 11:46:57,505][contrast_train.py][line:330][INFO] Epoch [001/200] Train Loss: 3.6449 (CE 2.9418, Con 2.3549, RegionCon 4.6756, Reg 0.000000) | Train Acc: 0.1921 | Test Acc: 0.1750 | LR: 0.001000
[2025-09-18 11:50:45,459][contrast_train.py][line:330][INFO] Epoch [002/200] Train Loss: 3.0491 (CE 2.4675, Con 1.5616, RegionCon 4.2544, Reg 0.000000) | Train Acc: 0.3138 | Test Acc: 0.2229 | LR: 0.001000
…
